models/dqn_sizing.pth (torch, 21945 bytes, 6 tensors)

fc1.weight f4 [64, 3]
0	0xbecabc6f	-0.39596888
1	0xbea9000f	-0.33007857
2	0xbed4eb09	-0.41585568
3	0xbee3ed7e	-0.4451713
4	0x3e17e150	0.14832044
5	0xbe969536	-0.29410714
6	0x3e1e2a8c	0.15445918
7	0xbe67c791	-0.22634722
8	0x3e6b1d04	0.22960287
9	0x3f049a31	0.5179778
10	0x3d09825b	0.033571582
11	0xbee104df	-0.4394903
12	0x3ec49a52	0.38398987
13	0xbe23df7f	-0.16003226
14	0x3e467713	0.1938136
15	0xbdef69b3	-0.116900824
16	0xbef046ff	-0.46929166
17	0xbd906ba2	-0.07051779
18	0x3eb8b4fd	0.36075583
19	0x3eb15516	0.34635228
20	0xbf21ef68	-0.6325593
21	0xbf0517b4	-0.51989293
22	0x3ed1c261	0.40968612
23	0xbf05cd78	-0.52266645
24	0xbe500e69	-0.20317997
25	0x3df9942a	0.12186463
26	0xbe71daa6	-0.23618564
27	0x3e77404c	0.24145621
28	0x3eefcd1f	0.46836182
29	0x3dd1c166	0.10241966
30	0xbd573259	-0.05253825
31	0x3dc60f18	0.09670848
32	0x3efa41a1	0.48878196
33	0x3eb8b454	0.3607508
34	0xbe37b7d6	-0.17941222
35	0x3e94cf11	0.2906423
36	0xbcb346ba	-0.021884311
37	0xbecc86f3	-0.39946708
38	0xbe96f9b9	-0.29487398
39	0xbe9767b2	-0.295713
40	0xbf05b148	-0.52223635
41	0xbf0416df	-0.515974
42	0x3e8f67c5	0.28008857
43	0x3ed1c9b0	0.40974188
44	0x3e6942a1	0.22779323
45	0xbec70a2c	-0.38874948
46	0xbf1396ed	-0.5765217
47	0x3d3f5a14	0.046716765
48	0xbeaa8455	-0.33304086
49	0x3e3cce02	0.1843796
50	0x3e16942c	0.1470496
51	0x3dc14ab9	0.0943808
52	0x3ecb5b53	0.39718112
53	0xbea97fb6	-0.33105248
54	0xbf052ca3	-0.52021235
55	0xbeb18d29	-0.3467801
56	0x3e07a6a0	0.13247156
57	0x3c24e4f7	0.010064355
58	0xbda63e66	-0.0811737
59	0xbcd9bf06	-0.026580345
60	0xbf0668e9	-0.5250383
61	0xbee4aa95	-0.44661394
62	0x3eb2ee7b	0.3494757
63	0x3f11ed90	0.57003117
64	0x3e68623c	0.22693723
65	0x3eadb722	0.33928782
66	0xbe345290	-0.1760962
67	0xbf0fde1f	-0.56198305
68	0xbe893549	-0.26798466
69	0x3e3aab32	0.18229368
70	0x3e68d8a1	0.22738887
71	0xbe992fdd	-0.2991933
72	0xbec7aae9	-0.38997582
73	0xbe810ff1	-0.25207475
74	0xbd966808	-0.07344061
75	0xbe2f8bd5	-0.17143185
76	0x3ed64521	0.41849616
77	0xbedce174	-0.43140757
78	0x3e43b2e1	0.19111206
79	0xbc5ab912	-0.013349788
80	0xbef60ad3	-0.48055133
81	0x3e7c064b	0.24611776
82	0x3eeacd1a	0.45859605
83	0xbf01a967	-0.5064911
84	0xbed84c53	-0.4224573
85	0x3eebc121	0.46045783
86	0xbf029f93	-0.5102474
87	0xbedb996d	-0.42890492
88	0x3eecdc69	0.4626191
89	0x3ed4f58f	0.41593596
90	0x3e62bd94	0.22142631
91	0x3ebd7c38	0.37008834
92	0xbefcf366	-0.49404448
93	0x3ef02271	0.46901277
94	0x3de0595a	0.109545425
95	0xbee56728	-0.44805264
96	0xbe965c36	-0.29367226
97	0xbf069978	-0.52577925
98	0xbd6ef4b7	-0.058338847
99	0xbbaf25d1	-0.0053450842
100	0x3e8209f5	0.25398222
101	0x3d5d0f51	0.053969685
102	0xbeac7e72	-0.3369022
103	0x3e8c3ad0	0.2738862
104	0x3e8a7498	0.2704208
105	0x3eac729b	0.33681187
106	0x3ee50b3a	0.44735128
107	0xbe1108a4	-0.14163452
108	0x3edec8af	0.43512484
109	0x3e38d22e	0.18048927
110	0xbf009ff3	-0.50244063
111	0xbe15e862	-0.14639428
112	0xbedb5177	-0.4283559
113	0x3e0b19d4	0.13584071
114	0x3eed8f5b	0.46398434
115	0x3db33784	0.08750823
116	0x3f13e8ef	0.57777303
117	0xbe2b11e2	-0.1670604
118	0x3e1782a6	0.14795932
119	0xbdb54df9	-0.08852763
120	0xbed26951	-0.41095975
121	0xbdebe49a	-0.11518212
122	0x3ebda266	0.37037963
123	0xbf08ecc4	-0.53486276
124	0xbe2901b1	-0.16504551
125	0x3e847c7c	0.25876224
126	0x3d8141f7	0.0631141
127	0xbdeaef56	-0.11471431
128	0xbed6ae9d	-0.41930094
129	0x3e0856fd	0.13314433
130	0x3c94bba5	0.018155882
131	0xbed62f30	-0.41832876
132	0xbbd674d0	-0.006544687
133	0xbdb8244a	-0.089912966
134	0x3f01d8d2	0.50721467
135	0xbe8ec2e4	-0.27883065
136	0x3e8758c1	0.264349
137	0xbf18b817	-0.596559
138	0xbefe7b69	-0.4970353
139	0xbec788e7	-0.38971636
140	0x3e9e3425	0.30899158
141	0x3e23f6cf	0.16012119
142	0x3ed677bd	0.41888228
143	0xbe838f88	-0.25695443
144	0xbdacd975	-0.08439914
145	0xbe4b7706	-0.19869623
146	0x3dda4710	0.10658085
147	0xbdfab4da	-0.12241526
148	0xbf062b60	-0.52409935
149	0x3eb3b1b1	0.35096505
150	0x3ed2cd20	0.41172123
151	0x3eae9e11	0.3410497
152	0x3efa1546	0.48844355
153	0x3db01e92	0.08599581
154	0x3e56175b	0.20907347
155	0xbe358184	-0.17725188
156	0xbd3f0cb6	-0.04664298
157	0xbf03b661	-0.51450163
158	0x3efa0f7a	0.48839933
159	0x3e0d4186	0.13794526
160	0x3e4753f3	0.19465618
161	0xbe78c552	-0.24294022
162	0xbe97758e	-0.29581875
163	0xbb53ed9f	-0.0032337678
164	0x3ef4304a	0.47693092
165	0x3f000c01	0.50018317
166	0x3ea2e05f	0.31811807
167	0xbd5b1955	-0.053490955
168	0x3e51784f	0.2045605
169	0xbe01a92a	-0.12662187
170	0xbcc47a2d	-0.02398404
171	0xbef372a9	-0.47548416
172	0xbefd1d9e	-0.4943666
173	0xbf0ba9bf	-0.54555887
174	0x3ed300b0	0.41211462
175	0x3ea2527f	0.31703565
176	0x3f168a9a	0.5880524
177	0x3dc8a760	0.09797549
178	0x3eb852c6	0.3600065
179	0x3eaf919d	0.34290782
180	0x3e8249b2	0.2544685
181	0xbec80e8f	-0.39073607
182	0xbed17aca	-0.40913993
183	0xbe820846	-0.25396937
184	0xbdcd61b3	-0.100284
185	0xbdd668df	-0.10469221
186	0x3e7875a1	0.24263622
187	0x3eb79f9d	0.35863963
188	0x3e8135f6	0.2523648
189	0xbe3473c7	-0.1762229
190	0x3e8f2347	0.27956602
191	0x3df7ba63	0.12096097

fc1.bias f4 [64]
0	0xbdcfcc55	-0.10146395
1	0xbefc74d7	-0.49307892
2	0x3edae373	0.42751655
3	0xbe87f002	-0.265503
4	0xbe0b1952	-0.13583878
5	0x3e910e62	0.28331286
6	0xbf1791cb	-0.5920684
7	0xbb580770	-0.0032963417
8	0xbea91d31	-0.33030084
9	0xbdb4ac5f	-0.0882194
10	0xbe817f0e	-0.25292248
11	0xbee66206	-0.4499666
12	0x3e036f73	0.12835483
13	0x3e9a5b55	0.30147806
14	0x3d1d4f6c	0.03840582
15	0xbee7330e	-0.4515614
16	0x3ed5ef1a	0.41783983
17	0xbef234d5	-0.47305933
18	0xbe1a67df	-0.15078686
19	0x3d312117	0.043244448
20	0xbe5ba7a4	-0.21450669
21	0x3e86da62	0.26338488
22	0x3e3cf873	0.18454151
23	0x3e158fe2	0.14605668
24	0xbee68a52	-0.45027405
25	0xbe6c409b	-0.2307152
26	0xbe093f3b	-0.13403027
27	0x3e9d62b8	0.3073938
28	0xbe8f6d50	-0.28013086
29	0x3f0e3a85	0.55558044
30	0x3e997822	0.29974467
31	0xbe9ebf85	-0.31005493
32	0x3e52dba7	0.20591603
33	0x3f06a7e8	0.52599955
34	0x3e4cd1a9	0.20001854
35	0xbcf8c118	-0.030365512
36	0x3ed70209	0.4199374
37	0xbf0acee5	-0.54221946
38	0xbe756832	-0.23965529
39	0xbf17027c	-0.58988166
40	0xbeb0b645	-0.3451406
41	0x3e480191	0.19531848
42	0x3e8418b2	0.2580009
43	0xbe8d2675	-0.27568403
44	0xbe4f185c	-0.20224136
45	0xbe4acc49	-0.19804491
46	0x3ed5605f	0.41675088
47	0xbedb2056	-0.42798108
48	0xbee2c224	-0.44288743
49	0x3ef84d2a	0.48496372
50	0x3d87aecb	0.06625136
51	0xbeb6540a	-0.35610992
52	0x3e83f0b0	0.25769567
53	0xbe2091d8	-0.15680635
54	0x3e573ab6	0.2101849
55	0xbde4336b	-0.1114262
56	0x3e577f5a	0.21044675
57	0xbde265c6	-0.11054568
58	0x3e27a6a3	0.1637216
59	0xbf17aabe	-0.59244907
60	0xbedef523	-0.435464
61	0xbf10ee9b	-0.56614083
62	0xbefe0fc5	-0.49621406
63	0xbef7b929	-0.48383453

fc2.weight f4 [64, 64]
0	0xbd361528	-0.04445377
1	0x3d635f0a	0.05551056
2	0x3c3f4a50	0.011675432
3	0x3cc9e98a	0.024647493
4	0x3dcdaa5c	0.10042259
5	0xbb8126c0	-0.003941387
6	0xbdb42ad4	-0.08797231
7	0x3d9d624d	0.07684765
8	0xbd14646f	-0.036228593
9	0x3b080b14	0.0020758556
10	0xbdccbb25	-0.099966325
11	0x3d67538c	0.05647616
12	0xbddbfb12	-0.10741247
13	0xbc5c2b20	-0.013438016
14	0xbde1cdb0	-0.1102556
15	0x3d0a1250	0.03370887
16	0x3dc1d016	0.09463517
17	0xbd9df2b1	-0.07712305
18	0x3dd54670	0.104138255
19	0x3df0dfc0	0.11761427
20	0xbdb32a88	-0.087483466
21	0x3cfa06be	0.030520793
22	0x3d8ad8dc	0.06779644
23	0xbddcff5f	-0.10790896
24	0xbdd4b092	-0.103852406
25	0x3d8f7fa2	0.07006766
26	0x3c346019	0.01100924
27	0x3d43b711	0.047782008
28	0x39de4487	0.00042394196
29	0xbd8c79ce	-0.0685917
30	0xbb95b886	-0.004569116
31	0x3d18a20c	0.037263915
32	0x3d164990	0.03669125
33	0xbcf66491	-0.03007725
34	0xbdd943bf	-0.10608625
35	0x3c9e0b61	0.019292535
36	0xbdd1db10	-0.10246861
37	0xbd294614	-0.041326597
38	0x3d728f4a	0.059218682
39	0x3dee8e21	0.11648203
40	0x3d9a202e	0.07525669
41	0x3d70cb7c	0.058787808
42	0x3dab1124	0.08352879
43	0xbdf0b011	-0.11752332
44	0xbd2dcc04	-0.042430893
45	0x3d368eaf	0.044569667
46	0x3d7ea36c	0.06216757
47	0xbd65a1e6	-0.0560626
48	0x3d181268	0.03712693
49	0x3d559d30	0.05215186
50	0x3cbc4697	0.022982879
51	0x3c7ef3cb	0.015561054
52	0xbda7ba7e	-0.081898674
53	0xbd721a77	-0.05910727
54	0xbd3dfe85	-0.046385307
55	0xbd90d2da	-0.07071467
56	0xbd995a40	-0.07487917
57	0x3cff9540	0.031199098
58	0x3dd72315	0.10504738
59	0x3ccecde3	0.025244659
60	0x3d206f9c	0.03916894
61	0xbcbfbce8	-0.023405507
62	0x3dc2dfff	0.0951538
63	0x3cddaf6f	0.027061192
64	0x3d166fa8	0.036727577
65	0x3df972f0	0.12180126
66	0x3ca8d310	0.020608455
67	0x3bab57a0	0.0052289516
68	0xbbe0cf20	-0.0068606287
69	0xbdb8527a	-0.09000106
70	0xbd848142	-0.064699665
71	0x3dfef9a4	0.12449959
72	0x3c8b9868	0.017040446
73	0xbcc051f8	-0.023476586
74	0x3dc1f808	0.09471136
75	0x3da77cf6	0.08178131
76	0xbdc82a56	-0.097737
77	0xbdf844b4	-0.12122479
78	0x3d42a3a8	0.047519356
79	0xbdc8dc34	-0.098076254
80	0x3d39d6ac	0.045370743
81	0x3d4ddf54	0.05026181
82	0xbd0f8d78	-0.035047024
83	0xbd850c6a	-0.064965084
84	0x3dfae4d0	0.12250674
85	0xbdcb67ea	-0.099319294
86	0x3d5b5998	0.05355224
87	0xbdd09d96	-0.10186307
88	0xbd7fd7cc	-0.06246166
89	0x3be51960	0.0069915503
90	0xbda0a718	-0.078443706
91	0xbd04c79c	-0.032416925
92	0x3d12fc74	0.03588529
93	0x3d19ad80	0.037518978
94	0xbdefd22c	-0.11710009
95	0x3c7e6670	0.015527353
96	0xbdf94910	-0.12172139
97	0x3dad5474	0.08463374
98	0xbdb17ea2	-0.086667314
99	0xbc59e140	-0.013298333
100	0xbc824e40	-0.015906453
101	0xbd0ea534	-0.03482552
102	0x3c93aaf8	0.01802586
103	0xbd2ca2b4	-0.042147353
104	0xbd8de0d0	-0.06927645
105	0xbdde7016	-0.108612224
106	0x3d82736c	0.06369671
107	0xbdd37782	-0.10325529
108	0x3dd2ba40	0.102894306
109	0x3ceda818	0.029010817
110	0xbc1a8ba0	-0.009432703
111	0xba59c600	-0.00083073974
112	0x3cc4e9c0	0.024037242
113	0xbc9cf350	-0.01915899
114	0xbd90593e	-0.070482716
115	0xbdef6d10	-0.11690724
116	0x3ca910b0	0.02063784
117	0xbde6980e	-0.11259471
118	0xbd4f53a0	-0.05061686
119	0x3ce09aa8	0.027417496
120	0x3d489084	0.048965946
121	0xbd8058ae	-0.06266914
122	0x3da86d52	0.08223976
123	0x3d2e6b7c	0.042582974
124	0xbcbffbe8	-0.023435548
125	0xbdc5c382	-0.09656431
126	0xbdbfa878	-0.09358305
127	0xbd004ef0	-0.03132528
128	0x3c41a5c0	0.011819303
129	0x3c613217	0.0137448525
130	0x3d9f6016	0.07781999
131	0x3d56cd1b	0.052441698
132	0xbd6b40e0	-0.057434916
133	0x3d2b17e4	0.04177083
134	0xbc11735f	-0.008877604
135	0x3d146a76	0.03623434
136	0xbddb109e	-0.10696529
137	0xbab8e569	-0.0014106455
138	0xbded91ef	-0.116001
139	0xbcccc638	-0.024996862
140	0x3ce04420	0.027376235
141	0xbdb6c3c0	-0.08924055
142	0xbc80f54a	-0.015741963
143	0x3dcbb3a4	0.09946373
144	0x3d8d1e66	0.06890564
145	0x3bf97837	0.0076132077
146	0x3da8002c	0.08203158
147	0x3b4ea780	0.0031532943
148	0x3d5dbdd8	0.054136127
149	0x3c5e1a5a	0.013556087
150	0x3d9848d0	0.07435763
151	0xbde7be41	-0.11315585
152	0xbdf14dca	-0.11782415
153	0x3d108f56	0.035292946
154	0xb9c3ff1e	-0.00037383375
155	0x3d13394a	0.035943307
156	0xbd26ec44	-0.040752664
157	0xbceeb1d0	-0.029137522
158	0xbd6572ca	-0.056017675
159	0x3bc8cde7	0.006128061
160	0xbdcf93c8	-0.10135609
161	0xbdb916fa	-0.090375856
162	0x3cddd27c	0.027077906
163	0xbdf3648f	-0.118844144
164	0x3d49c8bc	0.0492637
165	0xbd7281b0	-0.05920571
166	0xbde9ce1d	-0.11416266
167	0xbd89c550	-0.067270875
168	0xbd389cc0	-0.045071363
169	0x3dd913c8	0.10599476
170	0x3df86dd0	0.1213032
171	0xbdd69fad	-0.104796745
172	0x3d815b76	0.06316273
173	0x3c1a528e	0.009419097
174	0xbd7fc4e4	-0.06244363
175	0x3d4ca0c4	0.049958006
176	0xbd68c128	-0.056824833
177	0xbde753ae	-0.112952575
178	0xbdaf4af5	-0.08559219
179	0xbce093e1	-0.027414264
180	0xbb431ac0	-0.0029770583
181	0x3dd25f7a	0.10272117
182	0xbd2d0d24	-0.04224886
183	0xbd831b0b	-0.064016424
184	0x3d77b018	0.06047067
185	0xbdb1cf18	-0.08682078
186	0xb9fb2d09	-0.00047908004
187	0x3dbbbb3e	0.09166573
188	0x3d2894e8	0.041157633
189	0x3cda4338	0.02664338
190	0x3d60d13c	0.05488704
191	0xbd44a64a	-0.048010148
192	0x3d05c008	0.03265384
193	0xbdef0a60	-0.11671901
194	0x3d559ea8	0.05215326
195	0x3dcc80b4	0.09985486
196	0xbd82d892	-0.06388964
197	0x3cf6b270	0.030114383
198	0xbd9efd74	-0.07763186
199	0xbddb67ea	-0.107131794
200	0x3d5f3c64	0.054500952
201	0xbdd9aa0a	-0.106281355
202	0x3d44d340	0.048053026
203	0x3d555b10	0.052088797
204	0xbdfb037e	-0.122565255
205	0xbd673c7c	-0.056454167
206	0xbde59da4	-0.11211708
207	0xbbc74600	-0.0060813427
208	0xbb98d4c0	-0.0046640337
209	0x3dedd736	0.11613314
210	0x3dbe8506	0.09302716
211	0x3c835fc8	0.016036883
212	0xbdc8f7b2	-0.09812869
213	0xbd9cbcf2	-0.07653226
214	0x3d66237c	0.056186184
215	0x3dd44a00	0.10365677
216	0xbd1ac7b4	-0.037788108
217	0x3b0e9000	0.002175331
218	0x3d219298	0.039446443
219	0xbd19f0b4	-0.037583068
220	0xbbc73fc0	-0.0060805976
221	0x3d4d8664	0.050176993
222	0xbd488ff8	-0.048965424
223	0xbd96da9c	-0.07365915
224	0xbbda9600	-0.0066707134
225	0xbdac62f8	-0.08417314
226	0xbdc9095a	-0.09816237
227	0x3da77586	0.08176713
228	0x3dc9bb22	0.09850146
229	0xbdc3b1c6	-0.09555392
230	0x3df07a7c	0.11742112
231	0xbce77c78	-0.028257594
232	0xbd8b408e	-0.06799422
233	0x3d902496	0.07038228
234	0xbda80dd4	-0.082057625
235	0x3de7192a	0.112840965
236	0xbd5d5820	-0.05403912
237	0xbdf4611a	-0.11932583
238	0xbdc66a70	-0.0968827
239	0xbb4d1c40	-0.0031297356
240	0x3d445ec8	0.047941953
241	0xbd064c74	-0.032787755
242	0x3d3a690c	0.045510337
243	0xbddfddc6	-0.10930972
244	0xbd693e70	-0.05694431
245	0xbd917100	-0.07101631
246	0x3cb08318	0.021546885
247	0xbd44d79c	-0.048057184
248	0x3d84c26c	0.064823955
249	0xbde1b6ba	-0.110211805
250	0x3ddab2d4	0.1067864
251	0xbd86a7f0	-0.06575
252	0x3bf25fe0	0.007396683
253	0x3d900b00	0.07033348
254	0xbcaa8f50	-0.02082029
255	0x3dff8720	0.12476945

fc2.bias f4 [64]
0	0xbdc5bf51	-0.09655631
1	0xbdb1d2b4	-0.086827666
2	0xbd9e155c	-0.07718918
3	0xbbe5fbc0	-0.0070185363
4	0x3c57996a	0.013159135
5	0xbc5ba6e0	-0.013406485
6	0x3db7c3de	0.089729056
7	0xbd18d244	-0.0373099
8	0x3d834547	0.06409698
9	0xb975481f	-0.00023391888
10	0xbbf38e6f	-0.007432751
11	0xbd3ecbaf	-0.046580967
12	0xbd6834fd	-0.05669116
13	0xbd69adaf	-0.057050403
14	0x3cafa140	0.021439195
15	0xbe13ea6d	-0.14444895
16	0x3d8d9958	0.069140136
17	0x3caaaa10	0.020833045
18	0x3df3fdf6	0.119136736
19	0xbd4b8cc4	-0.04969479
20	0xbdc72ef6	-0.09725754
21	0xbc864860	-0.016391933
22	0x3ba09540	0.0049006045
23	0xbdb018dd	-0.08598492
24	0x3c681608	0.014165409
25	0xbdecce06	-0.11562733
26	0x3d51a218	0.051179975
27	0x3b83d775	0.004023487
28	0x3d6f3af8	0.058405846
29	0x3cabe5d8	0.020983621
30	0xbdeb3e8c	-0.11486539
31	0xbd2853cf	-0.04109555
32	0xbdf63f8f	-0.120238416
33	0xbdf11aa0	-0.117726564
34	0xbcbde80b	-0.023181936
35	0xbcaec7bd	-0.021335477
36	0xbcb70230	-0.02233991
37	0x3db860e8	0.090028584
38	0xbdf3dbea	-0.1190718
39	0xbd4cf638	-0.0500395
40	0xbde2d056	-0.11074893
41	0x3d00ec80	0.031475544
42	0xbe0983b1	-0.13429143
43	0xbdfa5abe	-0.12224339
44	0xbdffaad6	-0.12483756
45	0x3d8632e3	0.065526746
46	0xbd762790	-0.060096323
47	0x3cd6fa60	0.026242435
48	0x3db84ac1	0.08998633
49	0xbc7fa880	-0.015604138
50	0xbe1d6827	-0.15371762
51	0xbe09844f	-0.13429378
52	0xbdd87140	-0.10568476
53	0x3c53db5e	0.012930719
54	0xbd7ba168	-0.061433226
55	0x3dc70d77	0.09719365
56	0xbdc0ed88	-0.094203055
57	0xbd6fd568	-0.05855313
58	0xbdb05054	-0.086090714
59	0xbde1b8ab	-0.11021551
60	0xbd3cee4b	-0.04612569
61	0x3cea5af2	0.02860782
62	0xbdf8cd66	-0.12148552
63	0xbcb65bde	-0.022260603

out.weight f4 [5, 64]
0	0x3cfd3faa	0.030914146
1	0xbd9b7472	-0.075905696
2	0xbd46772d	-0.0484535
3	0x3dfefd36	0.1245064
4	0x3d926454	0.07148042
5	0xbcc211b0	-0.023690075
6	0xbc4ea8b0	-0.01261346
7	0xbd11b33c	-0.03557132
8	0xbd5f81ca	-0.054567136
9	0xbb848f29	-0.0040453863
10	0xbbc81234	-0.0061056856
11	0x3c95eac2	0.018300418
12	0xbcca9edd	-0.024733955
13	0xbd8fda24	-0.07024029
14	0xbdd26a46	-0.10274176
15	0x3d4ee329	0.050509606
16	0x3d444fd0	0.047927678
17	0xbdd896b2	-0.10575618
18	0x3d70b148	0.05876282
19	0xbd90538a	-0.07047184
20	0x3d2f6604	0.0428219
21	0x3d418f9c	0.047256097
22	0x3dd3172e	0.103071555
23	0xbc0202c6	-0.007935232
24	0x3d59afb0	0.053146064
25	0x3d147491	0.03624398
26	0x3d35fa40	0.04442811
27	0x3c9f0660	0.01941222
28	0xbceb4358	-0.028718635
29	0xbdcef438	-0.10105175
30	0xbd186410	-0.037204802
31	0xbd930ffb	-0.071807824
32	0xbd88c216	-0.06677644
33	0xbb59c100	-0.003322661
34	0x3bf84dea	0.0075776475
35	0xbd386738	-0.045020312
36	0x3cc1c6a8	0.023654297
37	0xbd45abb8	-0.048259467
38	0xbc892f0c	-0.016746067
39	0x3decdfe4	0.11566141
40	0xbdfd407c	-0.12365815
41	0xbda314f6	-0.07962982
42	0x3d6c24d9	0.05765233
43	0x3dd9bb6e	0.106314525
44	0x3d1796e8	0.03700915
45	0x3dd26cf8	0.102746904
46	0x3dcf9852	0.10136475
47	0xbd8d3916	-0.06895654
48	0xbc608d8e	-0.013705624
49	0xbdd47326	-0.10373525
50	0x3d5cfc99	0.053951833
51	0xbd84b1bf	-0.06479215
52	0x3c8379b0	0.016049236
53	0x3d96c0af	0.0736097
54	0xbac4e149	-0.0015020753
55	0x3c8ca525	0.01716859
56	0xbd60a5e8	-0.05484572
57	0xbd86954c	-0.06571445
58	0x3b654380	0.003498286
59	0xbcea20d8	-0.028580114
60	0xbc9d22ca	-0.019181628
61	0x3d53739e	0.051623933
62	0x3dbd8bc4	0.09255174
63	0x3d3b3dc8	0.045713216
64	0x3c2345f1	0.009965406
65	0x3dd909e0	0.10597587
66	0xbdb4aeb5	-0.08822385
67	0xbdce0bd4	-0.1006085
68	0xbd529fb5	-0.05142184
69	0x3de2f310	0.11081517
70	0xbd184e74	-0.037184194
71	0xbd61e828	-0.055153042
72	0x3b93cd59	0.0045105633
73	0xbde88907	-0.11354261
74	0x3dce0fd9	0.100616165
75	0x3d190566	0.037358664
76	0xbd84f587	-0.06492143
77	0xbd2703b4	-0.040775016
78	0x3cb9f4a0	0.022699654
79	0xbdc3c359	-0.09558744
80	0xbd93a600	-0.07209396
81	0x3db65dfa	0.08904643
82	0xbcc38310	-0.023866206
83	0x3dfd6aec	0.12373909
84	0xbc2fa2f0	-0.01072
85	0x3d1bf92c	0.038079426
86	0xbd974df2	-0.07387914
87	0xbd796695	-0.060888845
88	0x3d713309	0.05888656
89	0x3ba824e7	0.005131352
90	0xbde56976	-0.11201756
91	0xbd31f84c	-0.043449685
92	0x3da4c69a	0.08045693
93	0xbdd294f4	-0.10282317
94	0x3d09af2c	0.033614323
95	0xbdd227d0	-0.102615
96	0x3d90444e	0.07044278
97	0xbddaf5fc	-0.10691449
98	0x3d229cc4	0.039700285
99	0x3d96d0a6	0.07364015
100	0xbcdefc00	-0.027219772
101	0x3ca20360	0.019777
102	0xbd7f01e9	-0.06225768
103	0x3dade1cc	0.08490333
104	0x3cda9a68	0.026684955
105	0x3d2d7514	0.042347983
106	0x3d3e27a1	0.04642451
107	0xbd94fee0	-0.07275176
108	0x3cb30a40	0.021855474
109	0x3d906994	0.070513874
110	0xbd9094be	-0.0705962
111	0xbdb26de6	-0.08712368
112	0x3db20a83	0.08693411
113	0xbd4db1e8	-0.050218493
114	0xbc2c4cba	-0.01051634
115	0x3d945988	0.07243639
116	0x3dba638e	0.0910102
117	0x3b5bea91	0.003355656
118	0x3c9bbfe8	0.019012406
119	0xbcf27520	-0.029596865
120	0x3d005390	0.03132969
121	0x3dcfd900	0.10148811
122	0xbca7c948	-0.02048172
123	0x3cb8a8ff	0.022541521
124	0xbd856576	-0.06513493
125	0x3c0cec01	0.00860119
126	0xbdd075d4	-0.10178724
127	0x3da54a0e	0.080707654
128	0x3dceba97	0.10094183
129	0xbdf265f4	-0.11835852
130	0xbdba9471	-0.09110344
131	0x3a07f300	0.0005186051
132	0xbd49df6c	-0.049285337
133	0x3ca336b8	0.019923553
134	0xbde77e3e	-0.11303376
135	0xbdca1120	-0.098665476
136	0xbda3184b	-0.07963618
137	0x3cfe8541	0.0310694
138	0x3dd7c0b2	0.105348006
139	0x3c40046f	0.011719807
140	0x3caebcab	0.021330198
141	0xbb46a992	-0.0030313474
142	0x3db0e484	0.08637336
143	0x3cebd968	0.02879019
144	0x3da1ea17	0.07905977
145	0x3da7449c	0.08167383
146	0x3de3c84e	0.111221895
147	0xbdc7d5bc	-0.097575635
148	0x3d581324	0.05275263
149	0xbdedf764	-0.11619452
150	0xbd8bd792	-0.06828226
151	0x3b69a25b	0.003564975
152	0xbcf1f61d	-0.029536301
153	0xbc80432f	-0.015657036
154	0x3df0c8b4	0.11757031
155	0xbd3c83e6	-0.046024226
156	0xbc281c7d	-0.010260698
157	0x3d4986f0	0.049200952
158	0x3da66b84	0.08125976
159	0x3dcba25c	0.09943077
160	0xbd895948	-0.06706482
161	0xbd251f3c	-0.04031299
162	0xbc161a4b	-0.009161542
163	0xbd292bff	-0.041301724
164	0xbd508fa8	-0.05091825
165	0x3d80d354	0.06290308
166	0xbdad7844	-0.084702045
167	0x3d352584	0.04422523
168	0x3cae2a98	0.021260545
169	0xbde16a0c	-0.11006555
170	0x3d271e06	0.040800117
171	0xbdb9ac86	-0.09066109
172	0xbde59d8c	-0.1121169
173	0xbcf20368	-0.02954264
174	0x3dec7166	0.115450665
175	0x3ca1ec80	0.019766092
176	0x3d81e653	0.06342759
177	0xbd23db68	-0.040004164
178	0x3d93ff7d	0.07226465
179	0xbd3859ad	-0.045007396
180	0x3dd4acf6	0.10384552
181	0x3c96afce	0.018394377
182	0xbd7e8d92	-0.06214673
183	0xbc1ba7c8	-0.009500451
184	0x3cd42360	0.025895774
185	0x3d812252	0.06305374
186	0xbdb690aa	-0.08914311
187	0xbd15d291	-0.036577765
188	0xbcbb5658	-0.02286832
189	0xbd2a5380	-0.041583538
190	0xbd28baf8	-0.041193932
191	0x3d5aa219	0.053377245
192	0x3c583c92	0.013198035
193	0x3bc23620	0.0059268624
194	0x3db36732	0.08759917
195	0xbdeadbb2	-0.11467685
196	0xbcab445b	-0.020906618
197	0x3ced0200	0.028931618
198	0xbdbee1f8	-0.09320444
199	0x3cd2d6c8	0.025737181
200	0xbca452b6	-0.02005897
201	0xbd689948	-0.056786805
202	0xbd3c7d95	-0.0460182
203	0x3c993357	0.018701239
204	0xbc95830c	-0.018250965
205	0xbd86e87f	-0.06587314
206	0xbde4e9ce	-0.11177407
207	0x3d16bff6	0.036804162
208	0xbd665868	-0.056236655
209	0xbdad7710	-0.08469975
210	0x3d849b5e	0.064749464
211	0xbda75f26	-0.08172445
212	0x3d946820	0.07246423
213	0xbddc026a	-0.10742648
214	0x3d9f2fe4	0.07772806
215	0xbd6358c5	-0.05550458
216	0x3ccb03c7	0.024782075
217	0xbd869266	-0.06570892
218	0x3d14c5c0	0.0363214
219	0x3da02307	0.07819181
220	0xbd42b6ff	-0.0475378
221	0x3df4ce62	0.11953427
222	0x3dd6365a	0.104595855
223	0x3dd3d82e	0.103439674
224	0xbdcbe064	-0.099549085
225	0x3deed9f8	0.11662668
226	0x3ca4c386	0.020112764
227	0x3d4cbaec	0.04998295
228	0xbc75fad0	-0.015013412
229	0xbdc5d596	-0.09659879
230	0x3d3435be	0.043996565
231	0xbc8967e8	-0.01677318
232	0x3c39d7b0	0.011342928
233	0x3dbcc732	0.09217681
234	0x3d7efd9d	0.062253583
235	0xbca7be10	-0.020476371
236	0xbcc05b08	-0.023480907
237	0x3d82b631	0.063824065
238	0xbd385e54	-0.045011833
239	0x3de1b5ea	0.110210255
240	0x3c877d27	0.01653917
241	0xbb37f580	-0.0028069913
242	0x3d68c2c6	0.056826375
243	0xbda45342	-0.08023693
244	0x3d20a5e4	0.039220706
245	0x3d061243	0.03273226
246	0x3d62e8aa	0.055397667
247	0x3d961bb5	0.073295034
248	0xbd9b5ca8	-0.07586032
249	0xbd49428c	-0.04913573
250	0x3b27d9c0	0.0025611967
251	0x3caab329	0.020837383
252	0xbddf6cd9	-0.10909433
253	0x3d452ea6	0.04814019
254	0x3c7428f0	0.014902338
255	0x3d5717b9	0.052512858

out.bias f4 [5]
0	0x399e85f7	0.0003023592
1	0x3a0fc589	0.0005484452
2	0x3a6752c6	0.0008824285
3	0xba304d79	-0.00067254115
4	0x3a2845a0	0.00064190663
